…
  WARMUP_ITERS: 1000
  WARMUP_METHOD: linear
  WEIGHT_DECAY: 0.0001
  WEIGHT_DECAY_BIAS: 0.0001
  WEIGHT_DECAY_NORM: 0.0
TEST:
  AUG:
    ENABLED: False
    FLIP: True
    MAX_SIZE: 4000
    MIN_SIZES: (400, 500, 600, 700, 800, 900, 1000, 1100, 1200)
  DETECTIONS_PER_IMAGE: 100
  EVAL_PERIOD: 4334
  EXPECTED_RESULTS: []
  KEYPOINT_OKS_SIGMAS: []
  PRECISE_BN:
    ENABLED: False
    NUM_ITER: 200
VERSION: 2
VIS_PERIOD: 0
[08/01 10:59:32] detectron2.utils.env INFO: Using a generated random seed 32134455
[08/01 10:59:43] detectron2.engine.defaults INFO: Model:
CondInst(
  (backbone): FPN(
    (fpn_lateral3): Conv2d(512, 256, kernel_size=(1, 1), stride=(1, 1))
    (fpn_output3): Conv2d(256, 256, kernel_size=(3, 3), stride=(1, 1), padding=(1, 1))
    (fpn_lateral4): Conv2d(1024, 256, kernel_size=(1, 1), stride=(1, 1))
    (fpn_output4): Conv2d(256, 256, kernel_size=(3, 3), stride=(1, 1), padding=(1, 1))
    (fpn_lateral5): Conv2d(2048, 256, kernel_size=(1, 1), stride=(1, 1))
    (fpn_output5): Conv2d(256, 256, kernel_size=(3, 3), stride=(1, 1), padding=(1, 1))
    (top_block): LastLevelP6P7(
      (p6): Conv2d(256, 256, kernel_size=(3, 3), stride=(2, 2), padding=(1, 1))
      (p7): Conv2d(256, 256, kernel_size=(3, 3), stride=(2, 2), padding=(1, 1))
    )
    (bottom_up): ResNetD(
      (stem): BasicStem(
        (conv1): Conv2d(3, 32, kernel_size=(3, 3), stride=(2, 2), padding=(1, 1), bias=False)
        (bn1): GroupNorm(32, 32, eps=1e-05, affine=True)
        (activate1): ReLU(inplace=True)
        (conv2): Conv2d(32, 32, kernel_size=(3, 3), stride=(1, 1), padding=(1, 1), bias=False)
        (bn2): GroupNorm(32, 32, eps=1e-05, affine=True)
        (activate2): ReLU(inplace=True)
        (conv3): Conv2d(32, 64, kernel_size=(3, 3), stride=(1, 1), padding=(1, 1), bias=False)
        (bn3): GroupNorm(32, 64, eps=1e-05, affine=True)
        (activate3): ReLU(inplace=True)
        (maxpool): MaxPool2d(kernel_size=3, stride=2, padding=1, dilation=1, ceil_mode=False)
      )
      (res2): Sequential(
        (0): BottleneckBlock(
          (shortcut): Conv2d(64, 256, kernel_size=(1, 1), stride=(1, 1), bias=False)
          (bn1): GroupNorm(32, 64, eps=1e-05, affine=True)
          (activate1): ReLU(inplace=True)
          (conv1): Conv2d(64, 64, kernel_size=(1, 1), stride=(1, 1), bias=False)
          (bn2): GroupNorm(32, 64, eps=1e-05, affine=True)
          (activate2): ReLU(inplace=True)
          (conv2): Conv2d(64, 64, kernel_size=(3, 3), stride=(1, 1), padding=(1, 1), bias=False)
          (bn3): GroupNorm(32, 64, eps=1e-05, affine=True)
          (activate3): ReLU(inplace=True)
          (conv3): Conv2d(64, 256, kernel_size=(1, 1), stride=(1, 1), bias=False)
        )
        (1): BottleneckBlock(
          (bn1): GroupNorm(32, 256, eps=1e-05, affine=True)
          (activate1): ReLU(inplace=True)
          (conv1): Conv2d(256, 64, kernel_size=(1, 1), stride=(1, 1), bias=False)
          (bn2): GroupNorm(32, 64, eps=1e-05, affine=True)
          (activate2): ReLU(inplace=True)
          (conv2): Conv2d(64, 64, kernel_size=(3, 3), stride=(1, 1), padding=(1, 1), bias=False)
          (bn3): GroupNorm(32, 64, eps=1e-05, affine=True)
          (activate3): ReLU(inplace=True)
          (conv3): Conv2d(64, 256, kernel_size=(1, 1), stride=(1, 1), bias=False)
        )
        (2): BottleneckBlock(
          (bn1): GroupNorm(32, 256, eps=1e-05, affine=True)
          (activate1): ReLU(inplace=True)
          (conv1): Conv2d(256, 64, kernel_size=(1, 1), stride=(1, 1), bias=False)
          (bn2): GroupNorm(32, 64, eps=1e-05, affine=True)
          (activate2): ReLU(inplace=True)
          (conv2): Conv2d(64, 64, kernel_size=(3, 3), stride=(1, 1), padding=(1, 1), bias=False)
          (bn3): GroupNorm(32, 64, eps=1e-05, affine=True)
          (activate3): ReLU(inplace=True)
          (conv3): Conv2d(64, 256, kernel_size=(1, 1), stride=(1, 1), bias=False)
        )
      )
      (res3): Sequential(
        (0): BottleneckBlock(
          (shortcut): Sequential(
            (0): AvgPool2d(kernel_size=2, stride=2, padding=0)
            (1): Conv2d(256, 512, kernel_size=(1, 1), stride=(1, 1), bias=False)
          )
          (bn1): GroupNorm(32, 256, eps=1e-05, affine=True)
          (activate1): ReLU(inplace=True)
          (conv1): Conv2d(256, 128, kernel_size=(1, 1), stride=(1, 1), bias=False)
          (bn2): GroupNorm(32, 128, eps=1e-05, affine=True)
          (activate2): ReLU(inplace=True)
          (conv2): Conv2d(128, 128, kernel_size=(3, 3), stride=(2, 2), padding=(1, 1), bias=False)
          (bn3): GroupNorm(32, 128, eps=1e-05, affine=True)
          (activate3): ReLU(inplace=True)
          (conv3): Conv2d(128, 512, kernel_size=(1, 1), stride=(1, 1), bias=False)
        )
        (1): BottleneckBlock(
          (bn1): GroupNorm(32, 512, eps=1e-05, affine=True)
          (activate1): ReLU(inplace=True)
          (conv1): Conv2d(512, 128, kernel_size=(1, 1), stride=(1, 1), bias=False)
          (bn2): GroupNorm(32, 128, eps=1e-05, affine=True)
          (activate2): ReLU(inplace=True)
          (conv2): Conv2d(128, 128, kernel_size=(3, 3), stride=(1, 1), padding=(1, 1), bias=False)
          (bn3): GroupNorm(32, 128, eps=1e-05, affine=True)
          (activate3): ReLU(inplace=True)
          (conv3): Conv2d(128, 512, kernel_size=(1, 1), stride=(1, 1), bias=False)
        )
        (2): BottleneckBlock(
          (bn1): GroupNorm(32, 512, eps=1e-05, affine=True)
          (activate1): ReLU(inplace=True)
          (conv1): Conv2d(512, 128, kernel_size=(1, 1), stride=(1, 1), bias=False)
          (bn2): GroupNorm(32, 128, eps=1e-05, affine=True)
          (activate2): ReLU(inplace=True)
          (conv2): Conv2d(128, 128, kernel_size=(3, 3), stride=(1, 1), padding=(1, 1), bias=False)
          (bn3): GroupNorm(32, 128, eps=1e-05, affine=True)
          (activate3): ReLU(inplace=True)
          (conv3): Conv2d(128, 512, kernel_size=(1, 1), stride=(1, 1), bias=False)
        )
        (3): BottleneckBlock(
          (bn1): GroupNorm(32, 512, eps=1e-05, affine=True)
          (activate1): ReLU(inplace=True)
          (conv1): Conv2d(512, 128, kernel_size=(1, 1), stride=(1, 1), bias=False)
          (bn2): GroupNorm(32, 128, eps=1e-05, affine=True)
          (activate2): ReLU(inplace=True)
          (conv2): Conv2d(128, 128, kernel_size=(3, 3), stride=(1, 1), padding=(1, 1), bias=False)
          (bn3): GroupNorm(32, 128, eps=1e-05, affine=True)
          (activate3): ReLU(inplace=True)
          (conv3): Conv2d(128, 512, kernel_size=(1, 1), stride=(1, 1), bias=False)
        )
      )
      (res4): Sequential(
        (0): BottleneckBlock(
          (shortcut): Sequential(
            (0): AvgPool2d(kernel_size=2, stride=2, padding=0)
            (1): Conv2d(512, 1024, kernel_size=(1, 1), stride=(1, 1), bias=False)
          )
          (bn1): GroupNorm(32, 512, eps=1e-05, affine=True)
          (activate1): ReLU(inplace=True)
          (conv1): Conv2d(512, 256, kernel_size=(1, 1), stride=(1, 1), bias=False)
          (bn2): GroupNorm(32, 256, eps=1e-05, affine=True)
          (activate2): ReLU(inplace=True)
          (conv2): Conv2d(256, 256, kernel_size=(3, 3), stride=(2, 2), padding=(1, 1), bias=False)
          (bn3): GroupNorm(32, 256, eps=1e-05, affine=True)
          (activate3): ReLU(inplace=True)
          (conv3): Conv2d(256, 1024, kernel_size=(1, 1), stride=(1, 1), bias=False)
        )
        (1): BottleneckBlock(
          (bn1): GroupNorm(32, 1024, eps=1e-05, affine=True)
          (activate1): ReLU(inplace=True)
          (conv1): Conv2d(1024, 256, kernel_size=(1, 1), stride=(1, 1), bias=False)
          (bn2): GroupNorm(32, 256, eps=1e-05, affine=True)
          (activate2): ReLU(inplace=True)
          (conv2): Conv2d(256, 256, kernel_size=(3, 3), stride=(1, 1), padding=(1, 1), bias=False)
          (bn3): GroupNorm(32, 256, eps=1e-05, affine=True)
          (activate3): ReLU(inplace=True)
          (conv3): Conv2d(256, 1024, kernel_size=(1, 1), stride=(1, 1), bias=False)
        )
        (2): BottleneckBlock(
          (bn1): GroupNorm(32, 1024, eps=1e-05, affine=True)
          (activate1): ReLU(inplace=True)
          (conv1): Conv2d(1024, 256, kernel_size=(1, 1), stride=(1, 1), bias=False)
          (bn2): GroupNorm(32, 256, eps=1e-05, affine=True)
          (activate2): ReLU(inplace=True)
          (conv2): Conv2d(256, 256, kernel_size=(3, 3), stride=(1, 1), padding=(1, 1), bias=False)
          (bn3): GroupNorm(32, 256, eps=1e-05, affine=True)
          (activate3): ReLU(inplace=True)
          (conv3): Conv2d(256, 1024, kernel_size=(1, 1), stride=(1, 1), bias=False)
        )
        (3): BottleneckBlock(
          (bn1): GroupNorm(32, 1024, eps=1e-05, affine=True)
          (activate1): ReLU(inplace=True)
          (conv1): Conv2d(1024, 256, kernel_size=(1, 1), stride=(1, 1), bias=False)
          (bn2): GroupNorm(32, 256, eps=1e-05, affine=True)
          (activate2): ReLU(inplace=True)
          (conv2): Conv2d(256, 256, kernel_size=(3, 3), stride=(1, 1), padding=(1, 1), bias=False)
          (bn3): GroupNorm(32, 256, eps=1e-05, affine=True)
          (activate3): ReLU(inplace=True)
          (conv3): Conv2d(256, 1024, kernel_size=(1, 1), stride=(1, 1), bias=False)
        )
        (4): BottleneckBlock(
          (bn1): GroupNorm(32, 1024, eps=1e-05, affine=True)
          (activate1): ReLU(inplace=True)
          (conv1): Conv2d(1024, 256, kernel_size=(1, 1), stride=(1, 1), bias=False)
          (bn2): GroupNorm(32, 256, eps=1e-05, affine=True)
          (activate2): ReLU(inplace=True)
          (conv2): Conv2d(256, 256, kernel_size=(3, 3), stride=(1, 1), padding=(1, 1), bias=False)
          (bn3): GroupNorm(32, 256, eps=1e-05, affine=True)
          (activate3): ReLU(inplace=True)
          (conv3): Conv2d(256, 1024, kernel_size=(1, 1), stride=(1, 1), bias=False)
        )
        (5): BottleneckBlock(
          (bn1): GroupNorm(32, 1024, eps=1e-05, affine=True)
          (activate1): ReLU(inplace=True)
          (conv1): Conv2d(1024, 256, kernel_size=(1, 1), stride=(1, 1), bias=False)
          (bn2): GroupNorm(32, 256, eps=1e-05, affine=True)
          (activate2): ReLU(inplace=True)
          (conv2): Conv2d(256, 256, kernel_size=(3, 3), stride=(1, 1), padding=(1, 1), bias=False)
          (bn3): GroupNorm(32, 256, eps=1e-05, affine=True)
          (activate3): ReLU(inplace=True)
          (conv3): Conv2d(256, 1024, kernel_size=(1, 1), stride=(1, 1), bias=False)
        )
      )
      (res5): Sequential(
        (0): BottleneckBlock(
          (shortcut): Sequential(
            (0): AvgPool2d(kernel_size=2, stride=2, padding=0)
            (1): Conv2d(1024, 2048, kernel_size=(1, 1), stride=(1, 1), bias=False)
          )
          (bn1): GroupNorm(32, 1024, eps=1e-05, affine=True)
          (activate1): ReLU(inplace=True)
          (conv1): Conv2d(1024, 512, kernel_size=(1, 1), stride=(1, 1), bias=False)
          (bn2): GroupNorm(32, 512, eps=1e-05, affine=True)
          (activate2): ReLU(inplace=True)
          (conv2): Conv2d(512, 512, kernel_size=(3, 3), stride=(2, 2), padding=(1, 1), bias=False)
          (bn3): GroupNorm(32, 512, eps=1e-05, affine=True)
          (activate3): ReLU(inplace=True)
          (conv3): Conv2d(512, 2048, kernel_size=(1, 1), stride=(1, 1), bias=False)
        )
        (1): BottleneckBlock(
          (bn1): GroupNorm(32, 2048, eps=1e-05, affine=True)
          (activate1): ReLU(inplace=True)
          (conv1): Conv2d(2048, 512, kernel_size=(1, 1), stride=(1, 1), bias=False)
          (bn2): GroupNorm(32, 512, eps=1e-05, affine=True)
          (activate2): ReLU(inplace=True)
          (conv2): Conv2d(512, 512, kernel_size=(3, 3), stride=(1, 1), padding=(1, 1), bias=False)
          (bn3): GroupNorm(32, 512, eps=1e-05, affine=True)
          (activate3): ReLU(inplace=True)
          (conv3): Conv2d(512, 2048, kernel_size=(1, 1), stride=(1, 1), bias=False)
        )
        (2): BottleneckBlock(
          (bn1): GroupNorm(32, 2048, eps=1e-05, affine=True)
          (activate1): ReLU(inplace=True)
          (conv1): Conv2d(2048, 512, kernel_size=(1, 1), stride=(1, 1), bias=False)
          (bn2): GroupNorm(32, 512, eps=1e-05, affine=True)
          (activate2): ReLU(inplace=True)
          (conv2): Conv2d(512, 512, kernel_size=(3, 3), stride=(1, 1), padding=(1, 1), bias=False)
          (bn3): GroupNorm(32, 512, eps=1e-05, affine=True)
          (activate3): ReLU(inplace=True)
          (conv3): Conv2d(512, 2048, kernel_size=(1, 1), stride=(1, 1), bias=False)
        )
      )
    )
  )
  (proposal_generator): FCOS(
    (fcos_head): FCOSHead(
      (attention_model): ModuleList()
      (cls_tower): Sequential(
        (0): Conv2d(256, 256, kernel_size=(3, 3), stride=(1, 1), padding=(1, 1))
        (1): GroupNorm(32, 256, eps=1e-05, affine=True)
        (2): ReLU()
        (3): Conv2d(256, 256, kernel_size=(3, 3), stride=(1, 1), padding=(1, 1))
        (4): GroupNorm(32, 256, eps=1e-05, affine=True)
        (5): ReLU()
        (6): Conv2d(256, 256, kernel_size=(3, 3), stride=(1, 1), padding=(1, 1))
        (7): GroupNorm(32, 256, eps=1e-05, affine=True)
        (8): ReLU()
        (9): Conv2d(256, 256, kernel_size=(3, 3), stride=(1, 1), padding=(1, 1))
        (10): GroupNorm(32, 256, eps=1e-05, affine=True)
        (11): ReLU()
      )
      (bbox_tower): Sequential(
        (0): Conv2d(256, 256, kernel_size=(3, 3), stride=(1, 1), padding=(1, 1))
        (1): GroupNorm(32, 256, eps=1e-05, affine=True)
        (2): ReLU()
        (3): Conv2d(256, 256, kernel_size=(3, 3), stride=(1, 1), padding=(1, 1))
        (4): GroupNorm(32, 256, eps=1e-05, affine=True)
        (5): ReLU()
        (6): Conv2d(256, 256, kernel_size=(3, 3), stride=(1, 1), padding=(1, 1))
        (7): GroupNorm(32, 256, eps=1e-05, affine=True)
        (8): ReLU()
        (9): Conv2d(256, 256, kernel_size=(3, 3), stride=(1, 1), padding=(1, 1))
        (10): GroupNorm(32, 256, eps=1e-05, affine=True)
        (11): ReLU()
      )
      (share_tower): Sequential()
      (cls_logits): Conv2d(256, 2, kernel_size=(3, 3), stride=(1, 1), padding=(1, 1))
      (bbox_pred): Conv2d(256, 4, kernel_size=(3, 3), stride=(1, 1), padding=(1, 1))
      (ctrness): Conv2d(256, 1, kernel_size=(3, 3), stride=(1, 1), padding=(1, 1))
      (scales): ModuleList(
        (0): Scale()
        (1): Scale()
        (2): Scale()
        (3): Scale()
        (4): Scale()
      )
    )
    (fcos_outputs): FCOSOutputs(
      (loc_loss_func): IOULoss()
    )
  )
  (mask_head): DynamicMaskHead()
  (mask_branch): MaskBranch(
    (refine): ModuleList(
      (0): Sequential(
        (0): Conv2d(256, 128, kernel_size=(3, 3), stride=(1, 1), padding=(1, 1), bias=False)
        (1): GroupNorm(32, 128, eps=1e-05, affine=True)
        (2): ReLU(inplace=True)
      )
      (1): Sequential(
        (0): Conv2d(256, 128, kernel_size=(3, 3), stride=(1, 1), padding=(1, 1), bias=False)
        (1): GroupNorm(32, 128, eps=1e-05, affine=True)
        (2): ReLU(inplace=True)
      )
      (2): Sequential(
        (0): Conv2d(256, 128, kernel_size=(3, 3), stride=(1, 1), padding=(1, 1), bias=False)
        (1): GroupNorm(32, 128, eps=1e-05, affine=True)
        (2): ReLU(inplace=True)
      )
    )
    (tower): Sequential(
      (0): Sequential(
        (0): Conv2d(128, 128, kernel_size=(3, 3), stride=(1, 1), padding=(1, 1), bias=False)
        (1): GroupNorm(32, 128, eps=1e-05, affine=True)
        (2): ReLU(inplace=True)
      )
      (1): Sequential(
        (0): Conv2d(128, 128, kernel_size=(3, 3), stride=(1, 1), padding=(1, 1), bias=False)
        (1): GroupNorm(32, 128, eps=1e-05, affine=True)
        (2): ReLU(inplace=True)
      )
      (2): Sequential(
        (0): Conv2d(128, 128, kernel_size=(3, 3), stride=(1, 1), padding=(1, 1), bias=False)
        (1): GroupNorm(32, 128, eps=1e-05, affine=True)
        (2): ReLU(inplace=True)
      )
      (3): Sequential(
        (0): Conv2d(128, 128, kernel_size=(3, 3), stride=(1, 1), padding=(1, 1), bias=False)
        (1): GroupNorm(32, 128, eps=1e-05, affine=True)
        (2): ReLU(inplace=True)
      )
      (4): Conv2d(128, 8, kernel_size=(1, 1), stride=(1, 1))
    )
  )
  (controller): Conv2d(256, 169, kernel_size=(3, 3), stride=(1, 1), padding=(1, 1))
)
[08/01 10:59:44] detectron2.data.dataset_mapper INFO: [DatasetMapper] Augmentations used in training: [ResizeShortestEdge(short_edge_length=(1024,), max_size=1024, sample_style='choice'), RandomFlip()]
[08/01 10:59:44] adet.data.dataset_mapper_gxl INFO: Rebuilding the augmentations. The previous augmentations will be overridden.
[08/01
…
